data.pth (torch, 7722 bytes, 6 tensors)

l1.weight f4 [8, 100]
00000000: 312e e53e a61e babe 7b1e 083e 257e 3b3f
00000010: d4ed 5f3f 7e4a f43e 358f 223e cd9c 3b3f
00000020: 765b 89bd 200b e0bd 497e d7bd d9cb 633d
00000030: ce5c 7fbe e926 5c3e 810d aebe 4d6c b83e
00000040: 2f2b fd3e 9b10 373e 7008 b4bd a91a a83e
00000050: b1c0 113f eaeb d43e fcdf f03e bec5 82be
00000060: 6f75 953e 577e 873e 2c7f 093e e8ad c23e
00000070: 7c9c 163e f6da fd3d b4f7 1f3f b699 ee3e
00000080: e2d1 6c3e e790 1e3f 2f86 a43e 8797 0b3f
00000090: 3da8 00bd 8bca 353f 2dd0 9a3e c1f2 d5be
000000a0: db43 f0be 08b0 1fbf 3377 a6be 12a5 1abf
000000b0: 12cf 24bf f46b 1cbf 7d66 26bf b560 28bf
000000c0: a3fd 923e b132 0bbf 5948 453f 51fc fc3d
000000d0: 7530 5e3f 7cc8 b13e 7518 443e 237a 443f
000000e0: 2344 483d 686c 4e3b 4218 ca3e 2ef0 f2be
000000f0: 9c56 d73e 4eaf d63e 99ac d63d a164 9b3e
00000100: c1df aebe c4e5 243e f168 8b3e 7247 ea3e
00000110: 26dc 1c3a ed0c 9e3e ab59 7d3d 071b e3be
00000120: bf44 f83e 5702 16bf 8a8c 5fbd f5b2 c73e
00000130: bd3b e4be fa0e afbe 5a44 253f 5de2 ee3e
00000140: 80e3 72be 75c1 26be 55be a53e 7041 2cbf
00000150: cc61 853c 2617 9b3e 3c48 e6bd d867 1e3f
00000160: d094 d2bc bf03 4a3f 3a28 6c3f f10e 453f
00000170: edbe 4cbe f2d1 17bf f6c7 1dbe 2a19 88be
00000180: 0378 e23e b781 27bf c2b6 20bf 492e 15be
00000190: 7ad1 14be 5287 0c3f 4573 3f3d 57fa e4be
000001a0: 9dc1 83be ecc2 a1be 2b80 7abd ee54 9bbe
000001b0: b4b4 c5bd 4cb5 843e 0c7a fa3e 9c72 8a3e
000001c0: 641f ac3e 3ced 36be 88a7 953e 586e c03b
000001d0: 1338 313d b556 c33d 1984 be3e 6a12 87be
000001e0: 0f4d dbbe 03d9 86be 8f0d 09be 2ccc 533e
000001f0: 5fc8 81be 99c6 36be 9ed9 b43e c170 8ebe
00000200: a70b d5be 7cab 4a3e ab59 d3be 0120 33be
00000210: 31d4 413d 3bff 9fbc 83c4 50bc eba2 9bbe
00000220: 8477 8e3e c715 eabe 657a 26be 4ed2 d43e
00000230: a9ff 723e 31fc b33e 3ddc cb3e 0d23 cd3e
00000240: 9f95 cd3e d082 b23e 3f51 dd3e 23c0 c33e
00000250: 3dc2 06bd b513 f53e 55a6 313e 5863 0d3e
00000260: 15ea d9be b7cc 75be 4c6a 2c3e 52f2 cebe
00000270: 5093 fc3d 822d 593d a3c1 8cbe ba57 e63e
00000280: b83c e5be e1ca ffbd 624e e23e fcec d2bd
00000290: 5bee dd3e 3807 d13d 0589 1bbe 634d 2ebe
000002a0: a6bf 08be 4195 4abc e549 b5bd 88eb f33e
000002b0: e44a b63e e690 1b3f 4d62 983e 5ae3 d2bd
000002c0: ceb6 153f 0513 dd3e aa00 68be 33f4 1cbe
000002d0: 3d9a 0f3f b3a2 423e 29e3 24be b128 093f
000002e0: 60db 9f3d 704c ac3c 95ff a53e 7b84 6abe
000002f0: 785f 403e 8276 8ebe ba6a a6be fe5e c6be
00000300: 0a8c 8e3e 9a28 dc3e 43b4 023f 1f42 633e
00000310: 3b04 f6bd 928b bd3e b582 ae3e 0b1c e83e
00000320: 36dd f6bd 536f bdbd 39d3 8cbe 5580 f5bc
00000330: 2855 3dbe 1735 523f 075e 593e 7f62 92b9
00000340: f778 afbe 1e03 473f 3e7b 0b3f 0f78 bb3e
00000350: ffa2 98bb 891d a23e 2833 9f3e 851c d73d
00000360: 50f5 a7be 4e87 6bbe c4d1 4c3f 7c61 b43e
00000370: 596c 1fbf 98d3 d73e 0d02 663e 7ef5 8e3e
00000380: ff67 b0be a589 f93e 8836 bf3e 88d7 bb3e
00000390: 6f13 96be c33f ce3e 12bd 5a3f 627a 8ebe
000003a0: b931 cbbe c760 b3be d1c7 d33d 7369 413e
000003b0: c0f0 003f fd4c 4c3e 449c fcbd 3ff2 893e
000003c0: 4c51 993e 29cf ad3e 157c 983d b836 9b3e
000003d0: 0d40 9f3e 1787 bf3e 7cdf db3e f83e c43e
000003e0: e2dc 283f fce4 8e3e aeb4 a33e 46d8 99be
000003f0: 0a84 a83d 9126 8e3e 3d73 5abe bc35 cebc
0.44761804 -0.36351508 0.13292877 0.73239356 0.8747227 0.47713083 0.15874942 0.73286134
-0.06706898 -0.10939622 -0.10522134 0.055614326 -0.24937746 0.21499218 -0.33994678 0.36020127
0.4944701 0.17877428 -0.08790672 0.3283284 0.5693465 0.41586238 0.47045887 -0.2554149
0.29191157 0.26463577 0.13427418 0.38023305 0.14708132 0.12395279 0.6248734 0.46601647
0.23126939 0.61939853 0.32133624 0.5452809 -0.031410445 0.7101218 0.3023695 -0.4178677
-0.4692677 -0.6237798 -0.32512817 -0.6040813 -0.64378464 -0.61102223 -0.65000135 -0.65772563
0.28709134 -0.54374224 0.7706352 0.12352813 0.8679269 0.3472327 0.19149955 0.76748866
0.048893105 0.003149772 0.39471632 -0.47448868 0.42058265 0.41930622 0.10482139 0.3035021
-0.34155086 0.16103274 0.272285 0.45757633 0.00059837324 0.30869237 0.061853092 -0.44356558
0.4848995 -0.5859732 -0.054577388 0.3900372 -0.44576827 -0.34191114 0.6455742 0.46657076
-0.23719597 -0.16284736 0.32371774 -0.6728735 0.016281985 0.30291098 -0.11244246 0.61877203
-0.025705725 0.78911966 0.9224888 0.76975924 -0.19994707 -0.59304726 -0.1540831 -0.265817
0.44232187 -0.65432304 -0.62778866 -0.14568438 -0.14533034 0.5489398 0.04674079 -0.44722244
-0.25733653 -0.31594026 -0.061157387 -0.30338234 -0.09653607 0.2591957 0.4892124 0.27040565
0.336177 -0.17863935 0.2922938 0.005872529 0.043266367 0.095380224 0.37210158 -0.26381236
-0.4283223 -0.26337442 -0.13384078 0.20683354 -0.25348184 -0.17849196 0.3532228 -0.278204
-0.41610453 0.19791979 -0.4127935 -0.17492677 0.047321502 -0.019530883 -0.012742165 -0.30397734
0.27825558 -0.4571974 -0.16257627 0.415667 0.23730339 0.35153344 0.39816466 0.40065804
0.40153214 0.34865427 0.43226048 0.38232526 -0.032900084 0.47866598 0.17348607 0.13807428
-0.42561403 -0.24003874 0.16837424 -0.4041925 0.12332785 0.053021915 -0.27491483 0.44988805
-0.44772887 -0.12489868 0.44200426 -0.102991074 0.43345913 0.10206455 -0.15188988 -0.17021708
-0.13354358 -0.0123646865 -0.08851985 0.47640634 0.35604012 0.6076797 0.29762498 -0.1029727
0.5848206 0.43178573 -0.22656503 -0.1532753 0.56094724 0.19007377 -0.1610228 0.53577715
0.07805514 0.021032542 0.32421556 -0.229021 0.18786418 -0.2782479 -0.325033 -0.38744348
0.27841216 0.42999727 0.5105631 0.22193192 -0.12012526 0.37020546 0.34084097 0.45333895
-0.120539114 -0.09249749 -0.275049 -0.02996842 -0.18489516 0.8211226 0.21227275 -0.00027920675
-0.34271976 0.7773913 0.5448493 0.36615035 -0.0046581025 0.3166316 0.31093717 0.105034865
-0.32804346 -0.23000833 0.80007577 0.35230625 -0.622747 0.4215362 0.2246172 0.2792167
-0.34454343 0.48737827 0.37346292 0.36687875 -0.29311702 0.4028302 0.8544475 -0.27827746
-0.39686373 -0.35034773 0.10340846 0.18887882 0.50367355 0.19951244 -0.12334493 0.26942632
0.29944837 0.33947113 0.07445542 0.30315185 0.31103554 0.37407753 0.42943943 0.3832929
0.6596204 0.27909076 0.31973785 -0.30047816 0.082283095 0.277638 -0.21333022 -0.025172107

l1.bias f4 [8]
00000000: c51f 2c3f 2d2f 583f 0084 6a3f bff3 8a3f
00000010: 7485 a53e 62a1 7f3e 750d 973f f790 823e
0.67235976 0.84446985 0.91607666 1.0855635 0.3232838 0.24963906 1.1800982 0.25501224

l2.weight f4 [8, 8]
00000000: ae68 75bf daa0 b13f e8ff e13d f072 963f
00000010: 1fde 213f 9a34 a23e d85a e9be ca33 b83f
00000020: ae5d bebe 537a 693d db3b ea3e 67dd 0fbe
00000030: 87a5 73bf ff55 c1be fcaf f83f a827 743e
00000040: 0781 733e a2f3 363f 33ef 28bf 2e06 a33f
00000050: 549b 863f 273d 81bf 3ae6 b83f 5582 51bf
00000060: f6df b8bd 520c 833f 1e81 b63f 94a8 fdbe
00000070: 6591 7dbf e626 9a3d 0ed7 293f aeaf 93bf
00000080: 4f8e da3f 8a7b 71bf da35 ab3f 2ade ac3f
00000090: 0c5c 36bf 8a6a 1cbf 0430 1f3d bcba 28be
000000a0: 54d5 aa3d 4d66 853f 0051 963f 5d03 33bf
000000b0: ad52 913f b2a9 c33f 9bb5 13be 9f1a 6a3f
000000c0: 6e76 74bf 1da6 523f 48a2 0f3f 6827 973f
000000d0: 2a40 233f 1ed1 713f 0175 83bf 77a2 2c3f
000000e0: 872e aabf bd86 b63f c9d3 1d3f a98c 833f
000000f0: bdb7 e6be 5850 e23d e967 153e 65a7 3fbf
-0.95862854 1.3877213 0.11035138 1.1753826 0.63229555 0.31680757 -0.4557712 1.4390805
-0.37180847 0.057001423 0.4574879 -0.14049302 -0.9517445 -0.37760922 1.9428706 0.23843253
0.23779689 0.71465504 -0.6598999 1.2736261 1.0516152 -1.0096787 1.444526 -0.81839496
-0.09027092 1.0238135 1.4258153 -0.49542677 -0.9904998 0.075269505 0.6634377 -1.1537988
1.7074679 -0.9432913 1.3375809 1.3505299 -0.712342 -0.61100066 0.03886415 -0.16477484
0.0834147 1.0421845 1.1743469 -0.69927007 1.1353356 1.5286162 -0.14424746 0.9144687
-0.9549321 0.8228472 0.56106997 1.1808901 0.6376978 0.9445971 -1.0270082 0.674354
-1.3295449 1.4259869 0.61651284 1.0277301 -0.45062056 0.110504806 0.1459042 -0.748648

l2.bias f4 [8]
00000000: af3e df3e 50f0 283f 35ca 453f ab92 9e3e
00000010: 09c5 203f 99ca c63e 5057 193e 71c3 c33e
0.4360251 0.6599169 0.7726167 0.30971274 0.6280065 0.38826445 0.14974713 0.38235047

l3.weight f4 [11, 8]
00000000: 12df afbf f598 5d3f 134c 61bf 4d33 823f
00000010: a480 b43e 8dc6 f4bd 54e7 9dbf 47f5 0bbf
00000020: 4925 343f 9d97 2abf 5086 bfbf a3cd afbf
00000030: 1392 1bbf 51c1 013f 138c 223f dab3 9bbf
00000040: 9607 f33e 8a8e c7be 184d e1be 9184 5ebf
00000050: 6a46 b53e 2086 3cbf 0456 d83e 7f59 59bf
00000060: 9ad1 c0bf 4e27 7f3f a712 283f 0d9f d9be
00000070: a930 15bd d3f5 adbf 9dd1 47bf c992 5dbf
00000080: 1905 cf3e 8b55 c9bf b3d0 16bf 46be afbe
00000090: 6f26 7bbf 67c0 0e3e b6db 023f 0adc 473f
000000a0: b5fe b0bf 6ae2 58bf e80c fbbd bbb2 95be
000000b0: a0e5 883f 3dfa 78bf 4ec4 82bf 7423 d5be
000000c0: 1a39 0cbe 29e5 f03e a46a 9e3d 40b1 293f
000000d0: fa18 05bf ec15 62bf 241c 8fbe 4b08 823f
000000e0: 480d 9fbd c462 8fbf 7667 5e3f 2d45 73bf
000000f0: d347 33bf 023a df3e 9f25 d5be 3617 babf
00000100: 1e6c 21be 93e8 adbd cb35 c6bf e172 513f
00000110: c8b2 94bf f73a 0d3f 7b55 b3bd 90e9 6a3e
00000120: a4c2 313f 7b94 fe3e deb2 3a3e 970d c5bf
00000130: fede 0ec0 74c6 533e 5912 6bbd 4509 363e
00000140: 77d9 7dbf bed1 8bbe f8eb b3bf fbef debd
00000150: 1472 1d3f f4cc 0c3f be08 95be 0aed 95bf
-1.3739951 0.8656152 -0.88006705 1.0171906 0.35254395 -0.11951933 -1.2336221 -0.5467114
0.7036939 -0.66637594 -1.4962864 -1.373463 -0.60769767 0.506856 0.63494986 -1.2164261
0.47466725 -0.38975936 -0.4400413 -0.8692103 0.35405284 -0.7364216 0.42253125 -0.84902185
-1.5063965 0.9966935 0.6565346 -0.4250416 -0.03642336 -1.3590645 -0.7805422 -0.865521
0.40433577 -1.5729231 -0.589122 -0.34324855 -0.9810552 0.13940583 0.511165 0.7807013
-1.382773 -0.8472048 -0.12258321 -0.29237923 1.0695076 -0.97256833 -1.0216157 -0.4162861
-0.13693658 0.47049835 0.07735184 0.6628609 -0.51991236 -0.883147 -0.27951157 1.0158781
-0.07766205 -1.1202016 0.8687662 -0.9502743 -0.7003147 0.43598944 -0.41630265 -1.4538333
-0.157639 -0.08491626 -1.5485166 0.81815916 -1.161706 0.551681 -0.087565385 0.2294066
0.69437623 0.49722657 0.18232295 -1.5394772 -2.2323604 0.20681173 -0.057390545 0.17776974
-0.9915995 -0.27308458 -1.4056387 -0.108856164 0.61502194 0.55000234 -0.29108232 -1.1712964

l3.bias f4 [11]
00000000: 1d59 86be aac6 853e 2b2d 203d bf22 bc3e
00000010: f485 ddbe b798 083f 2452 acbe ea78 9a3e
00000020: 00b6 0a3e 402c 7a3e 08bd 8dbe
-0.26239863 0.2612813 0.039105576 0.3674526 -0.4326626 0.53358024 -0.33656418 0.30170375
0.1354599 0.24430943 -0.27683282
